iris-ann.pt (torch, 4315 bytes, 8 tensors)

fully_connected1.weight f4 [6, 4]
0	0xbd2baf70	-0.041915357
1	0xbc8c7060	-0.017143428
2	0xbe400070	-0.18750167
3	0x3deb9078	0.115021646
4	0xbe927580	-0.2860527
5	0xbdb49478	-0.08817381
6	0x3e4671ec	0.19379395
7	0x3ef04938	0.4693086
8	0x3d68392a	0.05669514
9	0xbe6c1f2a	-0.23058763
10	0xbc583d7f	-0.013198256
11	0xbdefbd65	-0.11706046
12	0xbe697fbe	-0.22802636
13	0xbf1a592e	-0.6029233
14	0x3f62404b	0.88379353
15	0x3fbea88b	1.4895185
16	0xbe549c00	-0.20762634
17	0xbc90c2c0	-0.017670989
18	0x3deb8140	0.11499262
19	0xbb560a00	-0.003265977
20	0xbd4425c0	-0.047887564
21	0xbee28d1a	-0.44248277
22	0xbedcd3e0	-0.43130398
23	0xbee65d38	-0.44992995

fully_connected1.bias f4 [6]
0	0xbefa7e22	-0.48924357
1	0xbeee6cea	-0.4656747
2	0xbee12f79	-0.4398153
3	0xbec5eda8	-0.3865788
4	0xbef0252a	-0.46903354
5	0x3e6071e8	0.21918452

fully_connected2.weight f4 [8, 6]
0	0x3e80344b	0.25039896
1	0x3e8d3df2	0.27586323
2	0x3e1f0da6	0.1553255
3	0xbc9de6b7	-0.019275052
4	0x3e382b24	0.17985207
5	0xbe672ff3	-0.22576885
6	0x3ebc31b5	0.36756673
7	0xbce6a386	-0.028154146
8	0x3e95561f	0.29167268
9	0x3d0a8a3c	0.033823237
10	0x3ea39b18	0.31954265
11	0x3ea6bcba	0.32565862
12	0xbdaeb084	-0.085297614
13	0xbdf32d05	-0.11873821
14	0x3d7b9c73	0.0614285
15	0xbc8e22c3	-0.01735056
16	0x3d82c68e	0.063855276
17	0x3e5412e0	0.20710325
18	0xbea3556b	-0.31901106
19	0xbc997744	-0.018733628
20	0xbe8a2eec	-0.26988924
21	0x3fb2a761	1.395733
22	0xbe9301c4	-0.28712285
23	0x3d9fe954	0.07808176
24	0xbde46fd6	-0.111541435
25	0x3e6d9d58	0.23204553
26	0x3d7efd15	0.062253077
27	0xbecdbaff	-0.4018173
28	0x3e98fe33	0.2988144
29	0x3ebeead0	0.37288523
30	0xbe97b140	-0.2962742
31	0xbec99bc9	-0.39376667
32	0xbcd581b9	-0.026062833
33	0xbccfbcbb	-0.025358548
34	0x3dbed213	0.09317412
35	0x3ec113e9	0.37710503
36	0x3e3ba6e2	0.1832538
37	0xbe4050ff	-0.18780898
38	0xbeae5a89	-0.34053448
39	0x3fc43587	1.5328835
40	0x3ec8557b	0.39127716
41	0xbe466095	-0.1937278
42	0xbe85c6ae	-0.26128143
43	0x3e1252b9	0.14289369
44	0xbe957c4f	-0.29196402
45	0xbdca52d8	-0.098790824
46	0xbecebdd5	-0.40379205
47	0x3de4bc0d	0.1116868

fully_connected2.bias f4 [8]
0	0xbe81e93a	-0.2537325
1	0xbea577ea	-0.3231805
2	0xbe84ea78	-0.25960135
3	0xbd670ad3	-0.056406807
4	0x3fe82196	1.813525
5	0xbe015d94	-0.12633353
6	0x3f505e29	0.81393677
7	0xbe156aac	-0.14591473

fully_connected3.weight f4 [10, 8]
0	0xbe277218	-0.16352117
1	0x3e926d3e	0.2859897
2	0xbeacaa44	-0.33723652
3	0xbe4c01f0	-0.19922614
4	0xbe8f0c3c	-0.27939022
5	0x3e8f6ab2	0.2801109
6	0x3e034013	0.12817411
7	0xbdf29c3d	-0.11846206
8	0xbe19b1e0	-0.1500926
9	0x3dde1007	0.10842901
10	0xbdf4c4a4	-0.11951569
11	0x3f848fad	1.0356346
12	0xbf1c2f05	-0.61009246
13	0x3dd85234	0.10562554
14	0x3f8239b3	1.0173858
15	0x3e54946b	0.20759742
16	0x3e9a2d3b	0.30112633
17	0x3da008d1	0.078141816
18	0xbe570443	-0.2099772
19	0x3db027d0	0.08601344
20	0x3e0d2273	0.13782673
21	0x3e1a70fe	0.15082166
22	0xbe5de5eb	-0.21669738
23	0xbd43637f	-0.04770231
24	0x3d8fdce0	0.070245504
25	0x3d7e8df7	0.062147107
26	0x3e707b6f	0.23484586
27	0xbf0413d2	-0.51592743
28	0x3ff205b8	1.8907995
29	0xbea7e62c	-0.32792795
30	0x3f28e49a	0.6597382
31	0xbe2a6719	-0.16640891
32	0xbe63535d	-0.2219977
33	0x3e1b8588	0.15187657
34	0x3e9aa465	0.30203548
35	0x3ea0413b	0.31299767
36	0xbfbe54f9	-1.4869682
37	0xbe8cffcb	-0.27538905
38	0x3e624c4c	0.22099417
39	0xbdc35889	-0.09538371
40	0xbe2ef301	-0.17084886
41	0x3e2c3816	0.1681827
42	0xbea0b28f	-0.3138623
43	0x3edfb250	0.4369073
44	0xbfa16a85	-1.2610632
45	0x3ebc3a72	0.3676334
46	0x3e20973f	0.15682696
47	0xbd53a411	-0.051670138
48	0xbe5adc23	-0.21373038
49	0xbe6f0817	-0.2334293
50	0x3dedb498	0.11606711
51	0x3f4a9423	0.7913229
52	0xbfec5550	-1.8463535
53	0xbe46c200	-0.19409943
54	0xbc016d15	-0.007899542
55	0x3eadc130	0.33936453
56	0x3ea2eaaa	0.3181966
57	0xbeb024a1	-0.34402946
58	0x3dafa1d9	0.08575792
59	0x3eb7d86d	0.35907307
60	0xbf727a96	-0.947183
61	0x3d491acd	0.049097825
62	0x3e243457	0.16035591
63	0xbe334e5b	-0.17510359
64	0xbe403381	-0.18769647
65	0x3e0d1893	0.13778906
66	0xbe2f055e	-0.17091891
67	0x3f996a85	1.1985632
68	0xbf2e1382	-0.67998517
69	0xbcc581f1	-0.024109812
70	0x3f9e64ed	1.237455
71	0x3e7a0726	0.2441679
72	0x3e8a6c1d	0.2703561
73	0x3d3bf320	0.04588616
74	0xbeaaef35	-0.33385625
75	0xbe90c213	-0.28273067
76	0xbd182e0c	-0.03715329
77	0xbd163cf4	-0.036679223
78	0xbea44ca9	-0.32089737
79	0x3e6063a4	0.2191301

fully_connected3.bias f4 [10]
0	0xbea5b674	-0.32365763
1	0x3e8e7614	0.2782446
2	0xbedf2bd7	-0.43588135
3	0x3fac4aa0	1.3460274
4	0xbf4decf3	-0.8043968
5	0xbdee14ca	-0.11625059
6	0xbf475333	-0.77861327
7	0xbf701985	-0.9378894
8	0x3e673c96	0.22581705
9	0xbe9bc2cb	-0.30422053

output.weight f4 [3, 10]
0	0x3dbbe538	0.091745794
1	0xbfa8733e	-1.3160169
2	0x3e2ebac3	0.17063431
3	0x3fcab427	1.5836228
4	0xbd7f720d	-0.062364627
5	0xbe87aef0	-0.26500654
6	0xbe47fe3b	-0.19530575
7	0xbd137b06	-0.036005996
8	0xbf0affdc	-0.5429666
9	0xbdce63c0	-0.100776196
10	0x3d494950	0.049142182
11	0x3f04ff58	0.51952124
12	0x3e6bdac9	0.23032679
13	0x3ea1169b	0.3146256
14	0xbf7edb70	-0.99553585
15	0xbd45df93	-0.04830892
16	0xbf8eb874	-1.1150041
17	0xbf8b75d8	-1.0895338
18	0x3f27c188	0.6552968
19	0xbe91dd63	-0.28489217
20	0xbc65a5bf	-0.014016568
21	0x3f02accf	0.51044935
22	0xbe55fd8f	-0.20897506
23	0xbfa51040	-1.2895584
24	0x3f9035f9	1.1266471
25	0x3f0f933d	0.5608404
26	0x3fa1b710	1.2633991
27	0x3fb08f89	1.3793803
28	0x3e89747e	0.2684669
29	0xbdd1b5e3	-0.1023977

output.bias f4 [3]
0	0x3f4dea0d	0.8043526
1	0xbe07828b	-0.13233392
2	0xbeccf4e5	-0.4003059
